trained_model.pth (torch, 107233 bytes, 8 tensors)

net.0.weight f4 [128, 5]
0	0xbd8ef1ce	-0.06979714
1	0xbf34b579	-0.70589405
2	0x3c8642fe	0.016389366
3	0x3ec78e55	0.38975778
4	0x3e2ebe6e	0.1706483
5	0x3dd5cc4c	0.10439357
6	0xbdab7b97	-0.08373182
7	0xbe04b5a0	-0.1295991
8	0x3e675c8c	0.22593898
9	0xbeead2a4	-0.4586383
10	0xbe9302e5	-0.28713146
11	0xbebc136a	-0.36733562
12	0x3e21bf52	0.15795639
13	0x3e4c9ad1	0.19980933
14	0xbeae683d	-0.34063902
15	0x3d1d757d	0.038442124
16	0x3c5378f8	0.012907259
17	0xbe0a6095	-0.13513406
18	0x3dc051b6	0.09390585
19	0xbc4fe410	-0.012688652
20	0x3d5991ff	0.05311775
21	0x3ebd740f	0.37002608
22	0xbd3128c3	-0.043251764
23	0xbefbbb3e	-0.49166292
24	0x3f7ab2b7	0.9792895
25	0xbd4f300f	-0.05058294
26	0x3c6c9751	0.0144403735
27	0xbf336677	-0.70078224
28	0xbd93e61a	-0.07221623
29	0xbe3041e2	-0.17212632
30	0x3e2d2c0f	0.16911338
31	0x3e1a5ac4	0.15073687
32	0xbe731922	-0.23740056
33	0x3ea1a499	0.3157089
34	0x3f3d5668	0.7395997
35	0xbd9560b2	-0.07293834
36	0x3eab92bb	0.33510384
37	0xbe621eba	-0.22082034
38	0xbf3bd3e3	-0.7337019
39	0x3f1d3d55	0.6142171
40	0xbe08d648	-0.13362992
41	0x3e7fb253	0.24970369
42	0x3e5e7811	0.21725489
43	0x3debea92	0.1151935
44	0x3fa44409	1.2833263
45	0xbeb1e42b	-0.3474439
46	0x3d8be53e	0.06830834
47	0xbf102462	-0.56305516
48	0xbb554483	-0.0032542057
49	0xbe2c3c11	-0.16819789
50	0x3eac7675	0.33684126
51	0x3b9f9960	0.0048705786
52	0x3c36e704	0.011163477
53	0x3f043e76	0.5165781
54	0xbce4e27a	-0.027940024
55	0xbf92d563	-1.147137
56	0x3e1f0f07	0.15533076
57	0x3ea02dd5	0.31284967
58	0xbe03e307	-0.12879573
59	0x3e65526f	0.22394727
60	0x3e08309b	0.13299792
61	0xbf03cc33	-0.5148346
62	0xbe2a18f4	-0.16611081
63	0x3f421ac5	0.758221
64	0xbf129081	-0.57251745
65	0xbea8864e	-0.32914966
66	0xbd9d92b2	-0.076939955
67	0xbf53c59a	-0.8272339
68	0x3f1b360e	0.60629356
69	0xbf82e542	-1.0226214
70	0x3ea15ab9	0.31514528
71	0xbe4dd5b4	-0.20101053
72	0x3e138015	0.14404328
73	0x3f098122	0.53712666
74	0x3dda8418	0.10669726
75	0x3dc07c75	0.09398738
76	0x3e8eecf6	0.27915162
77	0xbeeace59	-0.45860556
78	0xbe38db2f	-0.18052362
79	0x3d294675	0.04132696
80	0xbf215a77	-0.63028663
81	0x3e7ef03e	0.24896333
82	0xbf391e21	-0.723116
83	0xbea62448	-0.32449555
84	0xbe947f2b	-0.2900327
85	0x3d582fa2	0.0527798
86	0xbf4bb976	-0.79579866
87	0xbeb317ba	-0.3497904
88	0xbde23429	-0.11045105
89	0x3f453d11	0.77046305
90	0xbed9a607	-0.4250948
91	0xbe9b339a	-0.30312806
92	0x3f00d8f4	0.50331044
93	0xbe94b248	-0.29042268
94	0x3e1e1ace	0.15439913
95	0xbe396e30	-0.1810844
96	0x3e60a4fe	0.2193794
97	0x3e0efc1e	0.13963363
98	0xbf5790e5	-0.84205467
99	0x3e1d4d83	0.153616
100	0xbed1d692	-0.40984017
101	0xbe2be4ef	-0.1678655
102	0xbf3199d3	-0.6937534
103	0x3f378467	0.71686405
104	0xbf669fb3	-0.9008743
105	0xbea9f304	-0.3319322
106	0x3dff4296	0.12463872
107	0x3c9971c9	0.018731015
108	0x3e191435	0.14949115
109	0xbebb3045	-0.36560264
110	0xbe016967	-0.12637864
111	0xbd846979	-0.0646543
112	0xbe8324e8	-0.25614095
113	0xbdec6838	-0.11543316
114	0xbe404ea5	-0.1878
115	0x3db14ff4	0.08657828
116	0x3ea07b37	0.31344005
117	0x3e95f2a2	0.29286677
118	0xbe6441f0	-0.22290778
119	0x3f4a76b4	0.79087377
120	0x3e3487e2	0.1762996
121	0xbd3799c6	-0.044824384
122	0x3ea469b7	0.32111904
123	0xbe593ceb	-0.21214645
124	0x3e24e6b8	0.16103637
125	0xbe94830c	-0.2900623
126	0xbf095023	-0.53637904
127	0xbe39de71	-0.18151261
128	0x3f039c1d	0.51410085
129	0x3f4aec58	0.7926688
130	0x3de846f2	0.11341657
131	0xbca85310	-0.02054742
132	0x3e137a4a	0.14402118
133	0xbed33a3d	-0.4125537
134	0x3edc303c	0.4300555
135	0xbdfc5798	-0.12321395
136	0x3e9536d6	0.291434
137	0x3eb5037b	0.35354218
138	0x3f650c45	0.89471847
139	0x3f7fe43a	0.9995762
140	0x3acc3a85	0.0015581405
141	0xbf172879	-0.5904613
142	0xbf76c5ed	-0.9639576
143	0x3ed5c2fc	0.41750324
144	0xbeffa957	-0.49933884
145	0xbe08f185	-0.13373382
146	0xbed5d589	-0.41764477
147	0xbe987eca	-0.29784232
148	0xbbbba336	-0.0057262434
149	0x3e0c584d	0.13705559
150	0x3dc68d2b	0.096948944
151	0x3d74f79d	0.059806455
152	0x3f137c27	0.57611316
153	0x3ef23ed2	0.47313553
154	0x3f391290	0.7229395
155	0xbe6e2d6c	-0.23259515
156	0x3e3747ce	0.17898485
157	0xbf89f5a6	-1.0778091
158	0xbf21d597	-0.6321654
159	0xbc005d88	-0.0078348
160	0x3cb3264d	0.02186885
161	0xbf6818cd	-0.90662843
162	0xbef1bf7d	-0.47216406
163	0xbeaeefb1	-0.34167245
164	0x3eaefd38	0.34177566
165	0xbec77b7e	-0.38961405
166	0x3d60cfdc	0.05488573
167	0xbe316f8f	-0.17327712
168	0xbe3c000f	-0.18359397
169	0xbd7e1ef6	-0.062041245
170	0x3e82a6f8	0.25518012
171	0x3e0528ad	0.13003798
172	0x3e71d65f	0.23616932
173	0x3f1eb39f	0.6199283
174	0x3f2e435e	0.68071544
175	0x3ed3adfd	0.4134368
176	0xbdbb3e63	-0.09142759
177	0x3f2af5fb	0.66781586
178	0x3f2b43cb	0.6690032
179	0x3e5c5efe	0.21520612
180	0xbe041215	-0.12897523
181	0x3d67a9d1	0.056558434
182	0xbee5f838	-0.44915938
183	0x3e0a2e71	0.13494278
184	0xbeac7263	-0.3368102
185	0xbdc5991f	-0.09648346
186	0xb94f25eb	-0.00019755184
187	0xbf19db53	-0.6010029
188	0xbe6ae6b3	-0.22939567
189	0xbee1a568	-0.44071507
190	0xbeaef913	-0.34174404
191	0xbb941e5d	-0.004520221
192	0xbf1c8e89	-0.6115499
193	0xbf22257d	-0.6333845
194	0xbef3f8fe	-0.47650903
195	0x3ea2632a	0.3171628
196	0xbf8ba92b	-1.0911001
197	0x3c807f96	0.015685838
198	0xbdc61b50	-0.09673178
199	0x3f75cbfb	0.96014374
200	0xbf2d2149	-0.67628914
201	0x3e5ce8bc	0.21573156
202	0xbeec5cdd	-0.461646
203	0xbf45f465	-0.7732604
204	0xbe9cc373	-0.30617866
205	0x3e9109f8	0.28327918
206	0x3b9a7670	0.004713826
207	0xbdbef8af	-0.093247764
208	0xbe83a73a	-0.2571352
209	0x3e684bdc	0.22685188
210	0x3e7102c0	0.23536205
211	0x3e4d60a2	0.20056394
212	0xbe45b2e7	-0.19306527
213	0x3e4f577e	0.2024822
214	0x3ddb2e11	0.10702146
215	0xbf130d30	-0.57442
216	0x3ea89fc1	0.32934383
217	0xbe37b9fd	-0.17942043
218	0xbfbc2a83	-1.4700474
219	0x3d1796ff	0.037009235
220	0xbe26d679	-0.16292752
221	0x3d8c2cdd	0.068444945
222	0xbeac0e4d	-0.3360466
223	0xbecee997	-0.4041259
224	0xbd6423f8	-0.055698365
225	0x3d82eabe	0.0639243
226	0xbd628d7c	-0.05531071
227	0xbe258eae	-0.16167709
228	0xbe041ee6	-0.12902412
229	0xbecb9c31	-0.39767602
230	0xbe8a6542	-0.2703038
231	0x3ec5b8ca	0.38617545
232	0xbf0806a8	-0.53135157
233	0xbfdd6769	-1.7297183
234	0x3f21c620	0.6319294
235	0x3e5ecae1	0.2175708
236	0x3e30eab5	0.17277034
237	0xbf13c066	-0.5771545
238	0xbe71dd1c	-0.23619503
239	0x3f2b6326	0.66948164
240	0xbecab2fa	-0.39589673
241	0xbe6551b0	-0.22394443
242	0xbe8baaf1	-0.27278855
243	0x3e90ef0e	0.28307384
244	0x3e426c1b	0.18986551
245	0x3de0fccb	0.109857164
246	0xbcac90e3	-0.021065181
247	0x3de6cc2c	0.112694114
248	0xbeb63696	-0.3558852
249	0x3ed9e099	0.42554167
250	0xbfb09538	-1.3795538
251	0x3dc5e84a	0.09663446
252	0x3ee34f0c	0.44396245
253	0xbec913b6	-0.3927285
254	0xbe2a3414	-0.16621429
255	0x3e009e76	0.12560448

net.0.bias f4 [128]
0	0x3e79d078	0.24395931
1	0xbd418bb8	-0.047252387
2	0x3e3d947e	0.18513677
3	0xbd06fc99	-0.03295574
4	0xbf82b685	-1.021195
5	0x3ebb5445	0.3658773
6	0xbf6fdf21	-0.9369984
7	0xbf728458	-0.9473319
8	0xbe8cd095	-0.27502885
9	0x3ed94a90	0.424397
10	0xbf027a8f	-0.5096826
11	0xbe3a835c	-0.18214172
12	0x3e4f7a4b	0.20261495
13	0x3f070049	0.5273481
14	0xbe3df5cc	-0.18550795
15	0xbed7df97	-0.42162773
16	0xbd3c15a2	-0.04591907
17	0xbe8ef2e7	-0.27919695
18	0x3ded6091	0.11590684
19	0xbec8f55d	-0.39249697
20	0x3f063746	0.5242809
21	0xbe8b4e52	-0.2720819
22	0x3ee3a757	0.44463608
23	0xbf9e7b76	-1.2381427
24	0xbe90f187	-0.2830927
25	0x3ebb0a59	0.36531332
26	0x3e16d4d3	0.14729623
27	0xbfa8a0fb	-1.3174127
28	0x3f5b6bcd	0.85711366
29	0xbe85caf3	-0.261314
30	0xbf49631d	-0.7866686
31	0x3ee31578	0.44352317
32	0xbeb44ecf	-0.35216376
33	0x3ed4d77b	0.4157065
34	0xbf54d133	-0.8313171
35	0xbf34c3a4	-0.70611024
36	0x3db1aaa7	0.086751275
37	0x3e53bd9b	0.20677797
38	0x3f1d9841	0.61560446
39	0xbf1e0205	-0.6172183
40	0xbda7bb53	-0.08190026
41	0xbebc1a5e	-0.36738867
42	0xbf8bd4ec	-1.0924354
43	0xbf39a190	-0.7251215
44	0x3e918fd3	0.28430042
45	0xbd5d4643	-0.054022085
46	0xbf7e260f	-0.9927682
47	0xbe4bbfe3	-0.19897418
48	0xbe0b84af	-0.13624834
49	0x3e0c506b	0.13702552
50	0xbea461e5	-0.32105938
51	0xbebdf205	-0.3709871
52	0xbf3a2a76	-0.7272104
53	0x3d91f866	0.07127456
54	0xbd5a025e	-0.053224914
55	0xbde21a19	-0.11040134
56	0x3f386b6c	0.7203891
57	0xbf160cb5	-0.5861314
58	0x3da625fa	0.08112712
59	0xbf5564ef	-0.8335714
60	0x3de0b04c	0.10971126
61	0x3e07e7ce	0.1327202
62	0xbcd015ef	-0.025401084
63	0x3eb1236d	0.3459734
64	0xbeded347	-0.43520567
65	0x3f5f650c	0.8726356
66	0xbf8649e8	-1.0491304
67	0xbd18b752	-0.037284203
68	0x3d9ef262	0.077610746
69	0xbc1ec3d7	-0.009690247
70	0x3dbda865	0.09260634
71	0xbedeb417	-0.43496773
72	0x3f089cfb	0.53364533
73	0x3ed8f541	0.42374614
74	0xbe0feebd	-0.14055915
75	0x3e9098f3	0.2824169
76	0x3dd5aad1	0.10432971
77	0xbf9bdf11	-1.217745
78	0xbf86d558	-1.0533857
79	0x3e50ccb4	0.20390588
80	0xbe1317de	-0.14364573
81	0xbf6540ec	-0.8955219
82	0x3e4524e2	0.19252351
83	0x3dafeff5	0.0859069
84	0xbf00cedf	-0.5031566
85	0xbed427f0	-0.4143672
86	0xbc8383f8	-0.016054139
87	0x3e2ace89	0.1668035
88	0x3e24b356	0.16084036
89	0xbee1f154	-0.4412943
90	0xbf308ca3	-0.68964595
91	0xbeb631b5	-0.35584798
92	0xbe4f1e17	-0.20226322
93	0xbf442bdb	-0.7662942
94	0xbe4494a3	-0.19197325
95	0x3d8dc1e1	0.06921745
96	0xbf236fb0	-0.63842297
97	0x3dda05b9	0.10645623
98	0x3f2859d6	0.6576208
99	0x3ecb15be	0.39665025
100	0xbe93e3fd	-0.2888488
101	0xbf994a8b	-1.1975874
102	0xbeeb6991	-0.45978978
103	0xbf5ca66c	-0.8619144
104	0xbecc0c6c	-0.39853227
105	0x3ebc777e	0.36809915
106	0x3f43cd5d	0.76485234
107	0xbe838d14	-0.25693572
108	0xbe9251f9	-0.28578165
109	0x3ea41178	0.32044578
110	0xbe105401	-0.14094545
111	0x3ca6edb7	0.020377023
112	0x3ddc4c13	0.107566975
113	0xbcc6ce04	-0.024268158
114	0xbe1dfeb0	-0.15429187
115	0xbd6a62b9	-0.057223056
116	0xbecfabf6	-0.40560883
117	0xbebd7f1c	-0.3701104
118	0x3e67a777	0.22622477
119	0xbf4e9d1d	-0.80708486
120	0x3d1291d6	0.03578361
121	0x3dc4fac3	0.096181415
122	0xbe6c0302	-0.23048022
123	0xbf12d721	-0.5735951
124	0xbd5e3bc8	-0.05425623
125	0xbf4aaf43	-0.7917368
126	0x3eeee009	0.466553
127	0xbf73672b	-0.95079297

net.3.weight f4 [128, 128]
0	0xbc3cd2ae	-0.011524839
1	0x3dba9d28	0.091120064
2	0xbd965724	-0.073408395
3	0xbddb8c74	-0.10720149
4	0xbe04b318	-0.12958944
5	0x3cb94d4d	0.022619868
6	0xbe335dfa	-0.17516318
7	0x3a0ffb0c	0.0005492426
8	0xbf3416de	-0.7034739
9	0xbed45b07	-0.41475698
10	0x3e1e2eab	0.1544749
11	0x3d383824	0.044975415
12	0xbd7c87d9	-0.061652992
13	0xbd94be68	-0.072628796
14	0xbd646c76	-0.0557675
15	0xbe308721	-0.17239048
16	0xbfce75d9	-1.6129714
17	0xbe2faf1a	-0.1715664
18	0xbe1cc170	-0.15308166
19	0xbeb9e855	-0.36310068
20	0xbd3b9038	-0.045791835
21	0xbdc9bdd2	-0.098506585
22	0x3cfadb75	0.030622223
23	0xbe93d19b	-0.28870854
24	0xbe4ec865	-0.20193632
25	0xbd99c81a	-0.075088695
26	0xbe7c64a3	-0.24647765
27	0xbea7ecad	-0.32797757
28	0x3adb1d0a	0.0016717028
29	0x3c9e06e7	0.0192904
30	0xbe633a9d	-0.22190328
31	0xbe7bb2ae	-0.2457988
32	0xbe679226	-0.22614345
33	0xbe36914b	-0.17828862
34	0xbe5c84d0	-0.21535039
35	0xbdc06e27	-0.0939601
36	0xbe12e776	-0.14346108
37	0xbb984438	-0.004646804
38	0xbe5ea220	-0.21741533
39	0x3e07b81d	0.13253827
40	0xbfd40a8b	-1.6565717
41	0xbe680eb2	-0.22661856
42	0x3ec0074d	0.3750557
43	0xbeeb392d	-0.4594206
44	0xbebb0a76	-0.3653142
45	0x3d38faa1	0.045160893
46	0xbe7d84d8	-0.24757707
47	0xbd3862d9	-0.045016143
48	0x3d9ec096	0.077515766
49	0xbe3daf87	-0.1852399
50	0x3e1a205b	0.15051405
51	0x3db08986	0.086199805
52	0xbe6d5d4a	-0.23180118
53	0xbead0431	-0.3379226
54	0x3cc7a735	0.024371723
55	0xbd7dc279	-0.06195304
56	0xbc46d836	-0.01213651
57	0xbde6f1df	-0.11276602
58	0x3d3b369a	0.04570637
59	0x3e7a40d2	0.2443879
60	0xbec218ec	-0.3790964
61	0xbd1aea95	-0.03782137
62	0xbdd0cb8f	-0.10195076
63	0xbdab6e53	-0.08370652
64	0xbfb95bd1	-1.4481145
65	0xbdd39c17	-0.10332506
66	0xbcc8ef5d	-0.0245282
67	0x3d8cae4e	0.068691835
68	0xbd7bb525	-0.06145205
69	0xbda54909	-0.08070571
70	0xbd99b8c0	-0.075059414
71	0x3dd3a77f	0.10334682
72	0xbdbed59a	-0.09318085
73	0xbe26e05d	-0.16296525
74	0x3da682e5	0.08130435
75	0xbd93dbfc	-0.07219693
76	0x3cb89d32	0.022535894
77	0x3eea30f4	0.45740473
78	0xbe5df771	-0.21676423
79	0x3cda9b79	0.026685463
80	0x3d92577f	0.07145595
81	0x3ec60fb7	0.38683864
82	0xbe3676bc	-0.17818731
83	0x3d0944cc	0.033512875
84	0xbfbaa2e3	-1.4580959
85	0xbd92a3c1	-0.0716014
86	0x3cdfb272	0.027306769
87	0x3dc73be1	0.09728218
88	0xbe8e3793	-0.27776775
89	0x3d3f3021	0.04667676
90	0xbe328678	-0.17434108
91	0xbd0fb5c8	-0.03508547
92	0xbd68c06e	-0.05682414
93	0x3d0cd4c8	0.03438261
94	0x3da1c13a	0.07898183
95	0xbdb9f3de	-0.09079717
96	0xbe8f3eb8	-0.27977538
97	0xbd5d911e	-0.054093473
98	0xbe467b95	-0.1938308
99	0xbd7ef7f3	-0.06224818
100	0x3e063630	0.13106608
101	0x3f796f8f	0.9743585
102	0xbe6c1e3c	-0.23058408
103	0xbe43430d	-0.19068547
104	0xbd846d61	-0.06466175
105	0xbe624c7d	-0.2209949
106	0xbd2ad7be	-0.041709654
107	0xbd5c2c19	-0.053752992
108	0xbe3c63a0	-0.18397379
109	0x3cc2cea1	0.023780169
110	0xbd9159ff	-0.070972435
111	0xbd15e2ed	-0.036593366
112	0x3bca024d	0.006164825
113	0xbe30f1b1	-0.17279698
114	0xbe6f51b4	-0.23371011
115	0xbeb67627	-0.35637018
116	0xbe66f9ed	-0.22556277
117	0xbd5ff3e0	-0.054675937
118	0xbc4fbf5d	-0.012679902
119	0x3a839066	0.0010037541
120	0x3da6a69d	0.08137248
121	0xbd53d112	-0.051713057
122	0x3e1d88fc	0.15384287
123	0x3ab04111	0.0013447126
124	0x3d2f2bb2	0.04276628
125	0xbda7ac82	-0.081872
126	0xbe3bb943	-0.1833239
127	0x3dc31890	0.09526169
128	0xbe422056	-0.18957648
129	0x3d40ae8f	0.047041472
130	0xbe09adbb	-0.13445179
131	0xbdc0a087	-0.09405618
132	0xbf944b4f	-1.1585482
133	0x3d844447	0.06458335
134	0xbf956ba7	-1.1673478
135	0xbea0b6d0	-0.31389475
136	0xbeee6715	-0.4656302
137	0xbe1689fb	-0.14701073
138	0x3b8af838	0.0042410158
139	0xbebf947d	-0.37417975
140	0xbf836128	-1.0264025
141	0xbc7172d8	-0.014736854
142	0x3a2e7242	0.0006654599
143	0xbdd119c3	-0.10209992
144	0xbe3a9dce	-0.1822426
145	0x3e728db9	0.23686875
146	0xbe455536	-0.19270787
147	0xbe9d457b	-0.30717072
148	0xbd802b23	-0.06258228
149	0xbe21090f	-0.15726112
150	0x3dcb4cb6	0.09926741
151	0xc001a19f	-2.0254896
152	0x3cdeb851	0.027187498
153	0xbd8cb3ce	-0.068702325
154	0xbc1187f9	-0.008882516
155	0xbf4ff82f	-0.81238073
156	0xbefcaf8b	-0.4935268
157	0x3d170483	0.036869537
158	0xbf6a6caf	-0.9157209
159	0x3d5a7452	0.053333588
160	0x3e9c9459	0.3058193
161	0xbe97c501	-0.2964249
162	0xbf65e3ff	-0.8980102
163	0x3e1f0acc	0.15531462
164	0xbc81f036	-0.015861612
165	0x3da9dbd5	0.08293883
166	0xbe135271	-0.14386918
167	0x3e0cdc35	0.13755877
168	0xbed20258	-0.41017413
169	0xbd9b55da	-0.07584734
170	0xbec412cd	-0.38295594
171	0xbc77d7e0	-0.015127152
172	0xbdd398bd	-0.10331867
173	0x3d8dcf79	0.06924338
174	0x3e85712b	0.26062903
175	0xbd823ccc	-0.06359252
176	0xbd664e74	-0.056227162
177	0xba80e21f	-0.0009833014
178	0xbe36337b	-0.17793076
179	0x3d85fa58	0.0654189
180	0xbf8d0067	-1.1015748
181	0xbef1f676	-0.47258347
182	0xba659c25	-0.0008758924
183	0xbe31bf6d	-0.1735818
184	0xbed7f013	-0.4217535
185	0xbda367e2	-0.079787984
186	0x3d7dd381	0.061969284
187	0xbfa84099	-1.3144714
188	0xbea987c9	-0.33111408
189	0xbe1bbbb4	-0.15208322
190	0x3bde0cab	0.0067764125
191	0xbe1f42db	-0.15552847
192	0xbe6102d6	-0.21973738
193	0xbf1cf833	-0.6131622
194	0x3eb950d6	0.36194485
195	0x3d897e9d	0.06713603
196	0x3cdb7f10	0.026793987
197	0xbdeb0d3a	-0.11477132
198	0x3ddca2d3	0.10773244
199	0x3b14c1a2	0.0022698422
200	0xbe84c0b9	-0.25928286
201	0x3dd5da5d	0.1044204
202	0x3c415377	0.011799685
203	0x3c34e7d5	0.011041601
204	0x3dc4c53f	0.09607934
205	0xbf7ad1f5	-0.9797662
206	0xbee86158	-0.45386767
207	0xbdcc989c	-0.099900454
208	0x3d6e04a8	0.05810991
209	0xbb7df68f	-0.0038751697
210	0xbdc3fbc1	-0.095695026
211	0x3bae048f	0.005310602
212	0xbbbdedb9	-0.005796161
213	0xbee1f492	-0.44131905
214	0xbc9a6f9c	-0.018852048
215	0x3ce3740a	0.027765293
216	0x3de31a0d	0.11088953
217	0x3cc12619	0.023577737
218	0xbe2944ff	-0.16530226
219	0x3cb15786	0.02164818
220	0x3d043e49	0.032285962
221	0xbe115622	-0.14193013
222	0x3dace6dd	0.08442471
223	0xbda9d4f4	-0.08292571
224	0xbf762843	-0.96155185
225	0xbe3151b2	-0.1731632
226	0x3d132552	0.035924263
227	0xbec6718c	-0.38758504
228	0xbec885f8	-0.3916471
229	0xbeb340c1	-0.3501034
230	0xbe0846bd	-0.13308235
231	0xbdf20277	-0.118168764
232	0xbdce0d44	-0.10061124
233	0xbc33c2c1	-0.010971726
234	0xbebc717a	-0.36805326
235	0x3dae8966	0.085223004
236	0xbd5a3a32	-0.053278156
237	0x3e0e05ea	0.13869444
238	0xbcf6a968	-0.030110076
239	0xbdd88223	-0.105716966
240	0xbc65c610	-0.014024273
241	0xbdb7f3b8	-0.089820325
242	0xbe080ac6	-0.1328536
243	0x3e68b625	0.22725733
244	0xbe94ba28	-0.29048276
245	0xbd94cf21	-0.07266069
246	0xbe6f014e	-0.23340341
247	0x3b12db23	0.0022408448
248	0xbd821878	-0.06352323
249	0x3e1bce90	0.15215516
250	0xbe58c5f1	-0.21169259
251	0xbd44a6fe	-0.04801082
252	0xbe5e3881	-0.21701242
253	0xbf52e6a4	-0.8238318
254	0x3bebe83e	0.0071993163
255	0x3e9379f6	0.28803986

net.3.bias f4 [128]
0	0x3faabf85	1.3339697
1	0x3f0649f3	0.5245659
2	0x3f37d2d9	0.71806103
3	0x3ea66969	0.32502297
4	0x3f25f3c2	0.6482507
5	0x3f3ff5b9	0.7498432
6	0x3eb802fe	0.35939783
7	0x3f08208b	0.53174657
8	0x40076f58	2.116171
9	0x3f821d32	1.016516
10	0x3f4f7788	0.81041765
11	0x3fdcea8a	1.7259076
12	0x3e31cbdd	0.17362924
13	0x3efdd97f	0.4958
14	0x3f9bf230	1.2183285
15	0x3f22308c	0.63355327
16	0x3f17ad89	0.5924917
17	0x3f1bcdc9	0.6086088
18	0x3f8abc8a	1.0838788
19	0x3ee4a27f	0.44655225
20	0x400d350f	2.2063634
21	0x3f471a5c	0.77774596
22	0x3f1d4d46	0.61446035
23	0x3e5d2ea0	0.21599817
24	0x3f012a4f	0.5045518
25	0x3f1f8fbc	0.62328696
26	0x3fb0bdb2	1.380789
27	0x3f71cd5c	0.9445398
28	0x3f7a61a6	0.9780525
29	0x3eb3d83b	0.35125908
30	0x3fa6df4e	1.3036897
31	0x3f56c73b	0.8389775
32	0x3ef22a0a	0.47297698
33	0x3f10d335	0.56572276
34	0x3f7fb9f8	0.9989314
35	0x3fadad14	1.3568444
36	0x3f864b35	1.0491701
37	0x3fac34b9	1.345359
38	0x3fd60ccb	1.6722654
39	0x3f2509f4	0.6446831
40	0x3f34aae3	0.7057325
41	0x3f2b2d8b	0.6686637
42	0x3f2da5e4	0.67831254
43	0x3e2d022c	0.1689536
44	0x3e0f34cc	0.13984984
45	0x3f3d8d64	0.7404387
46	0x3f0b97ce	0.5452851
47	0x3ea8897b	0.3291739
48	0x3ea83d63	0.32859334
49	0x3ef19ccb	0.47189936
50	0x3f3e5371	0.7434607
51	0x3edc67f2	0.43048054
52	0x3f4d386a	0.80164206
53	0x3f10399b	0.563379
54	0x3e2e3e22	0.1701589
55	0xbd84e93f	-0.06489801
56	0x3f77f91c	0.96864486
57	0x3fab6b0b	1.3392042
58	0xbd9575bb	-0.07297846
59	0x3eeb14c2	0.45914274
60	0x3ef9d133	0.4879242
61	0x3faab521	1.3336526
62	0xbe130eb6	-0.1436108
63	0x3f81c962	1.0139582
64	0x3fd25232	1.6431334
65	0x3fc8636a	1.5655339
66	0x3f38082a	0.7188746
67	0x3f3e92f6	0.74442995
68	0x3f559c27	0.83441395
69	0x3f6a1c7f	0.9144973
70	0x3f834e4e	1.0258272
71	0x3f01211c	0.50441146
72	0x3a895e4b	0.0010480372
73	0x3fb88f39	1.4418708
74	0x3faf3fef	1.3691386
75	0x3f15b065	0.5847228
76	0x3fa963a1	1.3233529
77	0x3fb37890	1.4021168
78	0x3f65461c	0.89560103
79	0x3f709f72	0.93993294
80	0x3f2f93d0	0.6858492
81	0x401bb46c	2.432887
82	0x3f97c86c	1.1858039
83	0x3f4d0d4c	0.80098414
84	0x3f2fa4d6	0.68610895
85	0x3f61c120	0.8818531
86	0x3d9cfa1e	0.076648936
87	0x3f17f09c	0.59351516
88	0x3fa0ab0c	1.2552199
89	0x3f72edd3	0.9489414
90	0x3fab1ccb	1.3368162
91	0x3e6a0e7d	0.2285709
92	0xbd62bb5a	-0.055354454
93	0x3f7e30c1	0.9929314
94	0x3f425093	0.75904197
95	0x3f3accdf	0.7296886
96	0x3ea3b8bd	0.31976882
97	0x3f56f034	0.8396027
98	0x3fc8d64b	1.5690397
99	0x3e47817b	0.19482987
100	0x3f472bf4	0.7780144
101	0x3e1b5cea	0.15172163
102	0x3ec388d0	0.38190317
103	0x3ef18d45	0.47178093
104	0x3f121c8e	0.5707482
105	0x3f4dacd7	0.8034186
106	0x3f100c6a	0.5626894
107	0x3e99ac1d	0.30014125
108	0x3f7d886e	0.990363
109	0x3fae4e81	1.3617707
110	0x3fb81f10	1.438448
111	0x3f2db23a	0.6785008
112	0x3fbc6b2f	1.472021
113	0x3e119b86	0.14219484
114	0x3f4d72a5	0.8025306
115	0x3ef53029	0.47888306
116	0x3f45354d	0.77034456
117	0x3f5095a7	0.8147835
118	0xbd1e563e	-0.038656466
119	0x3fa54edc	1.2914691
120	0x3f1cd059	0.61255413
121	0x3f432f07	0.76243633
122	0xbc4e9dcc	-0.012610864
123	0x3f19182c	0.5980251
124	0x3e779895	0.24179299
125	0x3f90f62f	1.1325129
126	0x3ed5c996	0.4175536
127	0x3eb784f7	0.35843632

net.6.weight f4 [64, 128]
0	0x3e39184a	0.18075672
1	0x3eb39bb8	0.3507974
2	0xbe1a9e40	-0.1509943
3	0x3d49f353	0.049304318
4	0x3ea798db	0.32733807
5	0x3e71fadd	0.23630853
6	0x3e208a6b	0.15677802
7	0xbf10dee1	-0.56590086
8	0x3e9eb3e4	0.3099662
9	0xbc583699	-0.013196611
10	0xbe1cda83	-0.1531773
11	0x3e2046e2	0.1565204
12	0x3dbd68b5	0.09248487
13	0xbea1b56b	-0.31583723
14	0x3f27ba2f	0.6551847
15	0x3e88f284	0.26747525
16	0xbe213751	-0.15743758
17	0xbd389a24	-0.045068875
18	0x3e9563da	0.29177743
19	0xbe829cc9	-0.25510243
20	0x3e775540	0.24153614
21	0x3e7e1851	0.24813963
22	0xbde70764	-0.112807065
23	0xc08527b9	-4.161099
24	0xbe20971c	-0.15682644
25	0xbe2b719d	-0.16742559
26	0x3ea522b0	0.32253027
27	0xbfc51ebd	-1.5400006
28	0xbfaf3b06	-1.3689888
29	0x3c2aee45	0.010432784
30	0x3ed00997	0.40632316
31	0xc005062a	-2.0785012
32	0xbec9cef7	-0.39415714
33	0xbf361b9d	-0.71135885
34	0xbfa81afa	-1.3133233
35	0xbdab29f5	-0.08357612
36	0xbfa751c6	-1.307183
37	0x3dd9275e	0.10603212
38	0x3e95fd8d	0.29295006
39	0x3e2dc6eb	0.16970412
40	0xc0161a1d	-2.3453438
41	0xbe019a53	-0.12656526
42	0xc04b55de	-3.177116
43	0xbdfb3f72	-0.122679606
44	0x3e789097	0.24273907
45	0xbf04f7fa	-0.5194088
46	0xbe2ceb60	-0.16886663
47	0x3e6bf1c9	0.23041452
48	0xbf130f16	-0.57444894
49	0x3d812ad2	0.063069955
50	0x3df2ddbb	0.11858698
51	0xbe6f0972	-0.23343447
52	0xbe228365	-0.15870436
53	0x3ed7b5aa	0.42130786
54	0xbf2a32a3	-0.66483516
55	0xbfa68622	-1.3009684
56	0xbd3cbb3a	-0.04607699
57	0x3ef0d884	0.47040188
58	0x3d84d221	0.064853914
59	0xbe26d242	-0.16291144
60	0xbec0933d	-0.37612334
61	0x3ea91010	0.33020067
62	0xbdaf662e	-0.08564411
63	0x3eb88d90	0.36045504
64	0x3dfc7dad	0.12328658
65	0x3e27916a	0.16364065
66	0xc0293b7c	-2.6442556
67	0xbef53fdf	-0.47900292
68	0x3efa9f43	0.48949632
69	0x3dfca254	0.12335649
70	0xbfad170a	-1.3522656
71	0xbe4c36c4	-0.19942766
72	0xbbd84587	-0.006600085
73	0x3e9b1ff9	0.3029783
74	0x3ed605fb	0.41801438
75	0x3e858c17	0.26083443
76	0x3e532336	0.206189
77	0x3ce349b5	0.027745107
78	0x3ea6effa	0.32604963
79	0x3ef3ae10	0.47593737
80	0xbe12ce70	-0.14336562
81	0xbf42616e	-0.75929916
82	0xbfa8a559	-1.317546
83	0xbeb3628a	-0.35036117
84	0xbe13186a	-0.14364782
85	0xc0324f53	-2.7860916
86	0xbe5aa260	-0.21351004
87	0x3e6f4f33	0.23370056
88	0x3e9771d5	0.29579034
89	0x3ebec389	0.37258556
90	0xbf2f08e4	-0.6837294
91	0xbfc00672	-1.5001967
92	0xbdf2e874	-0.11860743
93	0x3eb905a6	0.36137122
94	0x3f032686	0.5123066
95	0x3ec075c3	0.37589845
96	0xbef22a3a	-0.4729784
97	0xc02c626e	-2.6935077
98	0x3f047482	0.51740277
99	0xc0ae5475	-5.4478097
100	0x3ddf15d8	0.10892838
101	0xbc5f39c6	-0.013624614
102	0xbf8672e3	-1.0503811
103	0xbd50e6aa	-0.05100123
104	0xbf3cc9a8	-0.73745203
105	0xbe851466	-0.25992125
106	0xbe27dfe4	-0.16394001
107	0x3e3ae6d9	0.18252124
108	0xc00039bc	-2.0035238
109	0x3e9510c0	0.29114342
110	0xbce17e11	-0.027525933
111	0xbe0b6c35	-0.13615496
112	0x3d9e6029	0.07733185
113	0xbdc973de	-0.09836553
114	0xbe2a5dab	-0.16637294
115	0xbece036c	-0.40236986
116	0x3ef612a0	0.48061085
117	0x3e9ff305	0.31240097
118	0xbf0588d3	-0.521619
119	0x3eb86dc2	0.3602124
120	0xbf497a60	-0.78702354
121	0xbf4ba7a1	-0.79552656
122	0xc0a7e1e8	-5.2463264
123	0x3e8e1748	0.27752137
124	0xc0011c31	-2.0173457
125	0x3ebe11b3	0.37122878
126	0xbe829ac2	-0.25508696
127	0xbc2abfaa	-0.010421673
128	0x3dcebe56	0.100948974
129	0xbe28eb89	-0.164961
130	0xbea4efc5	-0.3221418
131	0xbbf2533e	-0.007395177
132	0xbc1ef461	-0.009701819
133	0xbd63a686	-0.05557873
134	0x3d57725a	0.05259929
135	0x3ebb0dfd	0.3653411
136	0xbeb10df9	-0.34580973
137	0x3eb42251	0.3518243
138	0x3e590b6c	0.21195763
139	0xbe22dd37	-0.159047
140	0xbefdf580	-0.49601364
141	0xbf9e0714	-1.234591
142	0xbc930e3a	-0.01795112
143	0xbf49c211	-0.78811747
144	0x3e817ebc	0.25292003
145	0xbeec2960	-0.46125317
146	0xbcbc1ac7	-0.022961987
147	0xbe92f1e6	-0.2870018
148	0xbc30dcb6	-0.010794809
149	0xbdc5b050	-0.096527696
150	0xbeb0daa9	-0.34541824
151	0x3dc12884	0.09431556
152	0xbeaa789a	-0.33295137
153	0x3ea6175a	0.3243969
154	0xbe2ca99c	-0.16861576
155	0x3e0286c8	0.12746727
156	0x3eb014fd	0.34391013
157	0x3e3d7426	0.18501338
158	0x3f632713	0.887315
159	0xbd0638cd	-0.032769013
160	0xbeedbabe	-0.46431535
161	0x3f3a5e70	0.7280035
162	0x3e8320ae	0.2561087
163	0x3f125de5	0.5717452
164	0x3e85a4e9	0.2610238
165	0x3f06d46c	0.5266788
166	0xbf24ece6	-0.6442398
167	0xbef6a2f1	-0.4817119
168	0x3e4d49a2	0.2004762
169	0x3e8b5616	0.27214116
170	0x3dabb271	0.08383644
171	0xbc5d8850	-0.013521269
172	0x3f23ba97	0.6395659
173	0x3de2347d	0.110451676
174	0xbecd15de	-0.40055746
175	0x3ec719d1	0.38886884
176	0xc0098e59	-2.1493132
177	0xbf512d0a	-0.8170935
178	0xbf11d773	-0.56969374
179	0xbee36005	-0.44409195
180	0x3e101ee1	0.1407428
181	0xbe177d2b	-0.14793842
182	0xbfe319db	-1.7742265
183	0x3dc182b7	0.0944876
184	0x3eb12178	0.34595847
185	0xbf166e7f	-0.58762354
186	0x3d7c1e4f	0.061552342
187	0xbeca49ce	-0.39509434
188	0xbea17aa8	-0.31538892
189	0x3dc3b354	0.095556885
190	0x3b905725	0.0044049197
191	0x3e86f6c2	0.26360136
192	0x3f84e443	1.038216
193	0xbdf449d6	-0.119281456
194	0x3db48116	0.08813684
195	0x3e6efd8c	0.23338908
196	0xbe5016bf	-0.20321177
197	0x3e08e02b	0.13366763
198	0x3e6445b1	0.2229221
199	0xbeeaa489	-0.45828655
200	0xbd8e55fd	-0.06949995
201	0x3d3c3819	0.045951936
202	0x3e18ec49	0.14933886
203	0xbe54c6e8	-0.20779002
204	0x3e6b0db7	0.2295445
205	0x3e7d4b32	0.24735716
206	0x3f08fef1	0.5351401
207	0x3f4c7e92	0.7988063
208	0xbec081e3	-0.37599096
209	0x3e1a5e3c	0.1507501
210	0x3e36b936	0.1784409
211	0xbf126abc	-0.57194114
212	0xbee906e2	-0.45513064
213	0x3e92e2d3	0.28688678
214	0xbd89b7e2	-0.06724526
215	0xbf3c1abb	-0.7347829
216	0xbdaf1254	-0.08548418
217	0xbe1770e0	-0.14789152
218	0xbf82156c	-1.0162787
219	0xbfc6e27f	-1.5537871
220	0xbffb42cd	-1.9629761
221	0x3dbd021b	0.09228917
222	0x3f09fcc1	0.53901297
223	0x3ebec0bd	0.37256423
224	0x3efcfdbb	0.4941233
225	0x3e8ce887	0.27521154
226	0xbda09a57	-0.07841938
227	0x3e10bf6c	0.14135522
228	0x3c872870	0.016498774
229	0xbf0d1391	-0.5510798
230	0xbc45b0c6	-0.012066072
231	0x3e37485c	0.17898697
232	0x3f4263e5	0.75933677
233	0x3e8a99df	0.2707052
234	0xbecec742	-0.40386397
235	0x3f2e0921	0.6798268
236	0x3ebbbaa0	0.3666582
237	0xbd439302	-0.04774762
238	0xbee6f676	-0.4510991
239	0xbecfae2c	-0.4056257
240	0x3d215236	0.039385043
241	0xbf1929a0	-0.5982914
242	0xbdd71ea7	-0.10503893
243	0xbeee976c	-0.465999
244	0xbe423d6d	-0.18968745
245	0x3d12821e	0.03576862
246	0xbff9e68f	-1.9523486
247	0x3e2a3f42	0.16625693
248	0x3f3dee42	0.7419168
249	0xbfb89c4a	-1.4422696
250	0xbd3ca9e8	-0.046060473
251	0xbf4101a7	-0.75393146
252	0xc00119d7	-2.0172021
253	0x3e3f209f	0.18664788
254	0xbed6f677	-0.41984913
255	0x3e84d0a7	0.2594044

net.6.bias f4 [64]
0	0x409426e8	4.6297493
1	0x3fff8def	1.996519
2	0xba89ded0	-0.0010518674
3	0x3f0e51ce	0.55593574
4	0x3f36fff8	0.7148433
5	0x40b60b4a	5.688878
6	0xbfd4aed4	-1.6615853
7	0x40e6ed80	7.2164917
8	0x40bf7d62	5.9840555
9	0xbf07e026	-0.530764
10	0x403c2c18	2.9401913
11	0x405fbbdb	3.4958408
12	0xc051f91c	-3.2808294
13	0xbffe1e9a	-1.9853089
14	0x3fb6d856	1.428477
15	0x400c600c	2.1933622
16	0x4011142a	2.2668557
17	0x40c3d689	6.1199384
18	0x40c13da0	6.0387726
19	0x4099d5ed	4.807364
20	0x40b71969	5.721852
21	0x40a3dfe7	5.121082
22	0x408f9dd9	4.4880185
23	0x3ede4aa0	0.4341631
24	0x404446bd	3.0668175
25	0x40c609be	6.188689
26	0x40c6ce55	6.212687
27	0x40870ced	4.220328
28	0x40bafc44	5.843294
29	0xbe160d02	-0.146534
30	0x40405082	3.0049138
31	0x40041ec8	2.0643787
32	0x40e31edc	7.097517
33	0xc082307f	-4.06842
34	0x409e9a2d	4.9563203
35	0x4059f5e8	3.405634
36	0xbed98842	-0.4248677
37	0x3e0338aa	0.12814584
38	0xbe94579d	-0.28973094
39	0xbff798a4	-1.9343457
40	0x3e2d4b43	0.16923241
41	0x40acd748	5.4012794
42	0xc003c248	-2.058733
43	0x40389f07	2.8847063
44	0xc0a0c253	-5.023721
45	0x40288c5a	2.6335664
46	0x407ea699	3.9789183
47	0xbf81075b	-1.008037
48	0x405eefcb	3.4833858
49	0x409930ca	4.7872057
50	0x404480b4	3.0703554
51	0xbf33f14a	-0.7029005
52	0x40bb2c28	5.84914
53	0xbf5f2b9d	-0.87175924
54	0x40b70c15	5.720225
55	0x40ebb7d1	7.3661885
56	0x40ab4879	5.3525968
57	0x4057a30a	3.369326
58	0x40c6e316	6.2152205
59	0x40891637	4.283962
60	0x3fcff480	1.624649
61	0x40aedaef	5.4642253
62	0xc00bd9f2	-2.1851773
63	0x40fab1a6	7.8341856

net.8.weight f4 [5, 64]
0	0xbe19306d	-0.14959879
1	0x3eca24fe	0.39481348
2	0x3d5e227d	0.05423211
3	0x3ee260a7	0.44214365
4	0x3eebf7ea	0.4608758
5	0x3dd5b610	0.10435116
6	0xbe11232f	-0.14173578
7	0x3f5a214d	0.8520706
8	0x400c9ccc	2.1970701
9	0xbe54cf87	-0.2078229
10	0xbf9fb4f0	-1.2477093
11	0x3e243f3c	0.16039747
12	0xbf9b8a23	-1.2151531
13	0xbe9b67a4	-0.3035251
14	0x3ede4e85	0.4341928
15	0x3ea4267f	0.3206062
16	0x3e9748cf	0.29547736
17	0x3ec69863	0.38788137
18	0x3fd7b261	1.6851312
19	0x3c79a55e	0.0152371805
20	0x3e9a0d45	0.3008825
21	0x3f82d247	1.0220422
22	0x3e842bf9	0.25814798
23	0x3e0c3127	0.13690625
24	0x3f069a2f	0.52579015
25	0x3e96eae3	0.2947608
26	0x3f8e20e8	1.1103792
27	0x3e259c78	0.1617297
28	0x3ed9ad4e	0.42515033
29	0x3e93a6bc	0.28838146
30	0x3facfa20	1.3513832
31	0xbceb0f54	-0.028693832
32	0x3f0d9665	0.5530761
33	0xbf904cef	-1.1273478
34	0xbea15aa2	-0.3151446
35	0x3e0b748f	0.13618682
36	0xbe625427	-0.22102414
37	0x3e81dd5a	0.2536419
38	0x3eca06e4	0.39458382
39	0xbeae96c6	-0.34099406
40	0xbe984fa6	-0.29748267
41	0x3f975c4d	1.1825043
42	0xbec832cc	-0.39101255
43	0xbe840651	-0.2578607
44	0xbf8645c8	-1.0490046
45	0x3f2aa183	0.666527
46	0x3f390925	0.7227958
47	0x3df300f6	0.11865418
48	0x3fcd0839	1.6018134
49	0x3f60b96e	0.87782943
50	0xbe51ee61	-0.2050109
51	0xbf013759	-0.5047508
52	0x3f95f8aa	1.1716511
53	0xbdd9859a	-0.106211856
54	0x3e6d1e57	0.23156105
55	0x3f0a2f07	0.5397801
56	0x3f796687	0.9742207
57	0x3f5b027f	0.85550684
58	0x3f08ea32	0.53482354
59	0xbe0326d3	-0.12807779
60	0x3e615c75	0.22007926
61	0x3ea3dff0	0.32006788
62	0xbdb4615b	-0.088076316
63	0x3f17de9f	0.5932407
64	0xbeb1a4f5	-0.34696165
65	0x3e5831d2	0.21112755
66	0xbba60fc7	-0.005067799
67	0x3ea7f193	0.32801494
68	0xbfed5a7b	-1.8543237
69	0x3ebb2de8	0.3655846
70	0xbd5fb628	-0.054617077
71	0x3f192f91	0.59838206
72	0x40542469	3.3147223
73	0xbe7741f4	-0.24146253
74	0x3f89cc00	1.0765381
75	0x3e4714c7	0.1944152
76	0xbf222f6c	-0.6335361
77	0xbd301fca	-0.042999066
78	0x3e38d32a	0.18049303
79	0x3c1f9775	0.0097407
80	0x3eed11fc	0.46302783
81	0x3f5b786a	0.8573061
82	0x3ffc1bc6	1.9695976
83	0xbeded5bf	-0.4352245
84	0x3eeec19f	0.46632096
85	0x3fb15449	1.3853847
86	0x3d88dccb	0.06682738
87	0x3b2c93c3	0.002633319
88	0x3f840e58	1.0316877
89	0x3e9e412c	0.30909097
90	0x3fac3b6d	1.3455635
91	0x3e8f840d	0.28030434
92	0x3f58f2c0	0.8474541
93	0x3c0e0fdb	0.008670772
94	0x3f8e1caf	1.1102504
95	0x3e045e44	0.12926584
96	0xbd86a68f	-0.06574737
97	0xbf82c60c	-1.0216689
98	0xbf71cd1b	-0.9445359
99	0xbdf21a7c	-0.11821458
100	0xbd50dd04	-0.050992027
101	0x3e1cb429	0.153031
102	0x3e978b47	0.29598448
103	0xbf176ed9	-0.59153515
104	0xbe9934b6	-0.29923028
105	0x3f98c935	1.1936404
106	0x3e30cfae	0.17266724
107	0xbdc38211	-0.095462926
108	0xbf8a3292	-1.0796683
109	0x3eb77a98	0.3583572
110	0x3e932884	0.28741848
111	0x3e531106	0.20611963
112	0x3ffbe5eb	1.967954
113	0x3f6c984d	0.9241989
114	0xbd058b9c	-0.032603845
115	0x3a105d92	0.0005507107
116	0x3fc1543e	1.5103834
117	0xbd386846	-0.045021318
118	0x3d0dc49a	0.034611322
119	0x3ee4c8fe	0.44684595
120	0x3f46a1a5	0.775904
121	0x3f6adb59	0.9174095
122	0x3e74175f	0.2383704
123	0xbef53c71	-0.47897676
124	0x3e285c56	0.16441473
125	0x3f2638ae	0.64930236
126	0xbe8a97b0	-0.27068853
127	0x3e923347	0.28554747
128	0xbdcfc351	-0.101446755
129	0xbf3c5385	-0.7356494
130	0xbd864b8b	-0.065573774
131	0xbf11b402	-0.56915295
132	0x3f098f25	0.53734046
133	0x3d8e05b7	0.06934684
134	0xbf55fefe	-0.8359221
135	0x3f5aea20	0.85513496
136	0x3fdbc5a4	1.716969
137	0x3eea8ef4	0.4581219
138	0xbf37ccfa	-0.71797144
139	0x3ec96348	0.39333558
140	0xbe7d5cb1	-0.2474239
141	0xbed9f94b	-0.42573008
142	0xbf60eb63	-0.8785917
143	0x3ef100c3	0.47070894
144	0xbf5638b3	-0.83680266
145	0x3f5f6f85	0.8727954
146	0x3f8b104e	1.0864351
147	0x3fb5c865	1.420178
148	0x3ddac595	0.10682217
149	0x3ed57b83	0.41695794
150	0x3e5b667a	0.2142581
151	0xbf2dccd9	-0.678907
152	0x3e3b6f0f	0.18304084
153	0x3ea553bc	0.32290447
154	0x3f20e982	0.62856305
155	0x40079b20	2.118843
156	0x3fc2ca22	1.5217936
157	0xbed1048e	-0.40823787
158	0x3f88c722	1.068577
159	0x3fb6adf2	1.4271834
160	0x3f956faa	1.1674702
161	0xbf745a46	-0.95450246
162	0xbf448b4f	-0.7677507
163	0xbfafca34	-1.3733582
164	0x402b56d7	2.6771753
165	0xbf039ea4	-0.5141394
166	0xc00fe1b4	-2.2481508
167	0xbf204926	-0.62611616
168	0x3fcfd5cd	1.6237122
169	0x3f1df790	0.61705875
170	0xbf45444f	-0.77057356
171	0x3efa3b91	0.4887357
172	0xbf2e9e7a	-0.68210566
173	0xbe20c82a	-0.15701357
174	0x3eaf083b	0.34185967
175	0xbe85ff3a	-0.26171285
176	0x3fec4440	1.8458328
177	0x3f8410b2	1.0317595
178	0x3eb8d13e	0.3609714
179	0xbe4f15e6	-0.20223197
180	0x3f365bc7	0.7123379
181	0xbfa463e6	-1.2842987
182	0x3f54142f	0.828433
183	0x3f32264b	0.6958968
184	0x3f2a158d	0.66439134
185	0xbf9057a5	-1.1276747
186	0x3f801571	1.0006543
187	0x3e30fd93	0.17284231
188	0xbfd898ac	-1.6921592
189	0x3e76774b	0.24068944
190	0xbf547371	-0.8298865
191	0x3f24351a	0.64143527
192	0xc0356bef	-2.8347127
193	0xbdeb9fc7	-0.115050845
194	0x3d98d13d	0.07461784
195	0xbea7adfd	-0.3274993
196	0x3ee705b8	0.4512155
197	0xc04a35cb	-3.1595333
198	0x3e75533b	0.23957531
199	0x3f4ef650	0.80844593
200	0x3f6359f3	0.88809127
201	0xbe84e4c0	-0.25955772
202	0xbf60321e	-0.8757647
203	0x3fa060f3	1.2529587
204	0xbf11397d	-0.56728345
205	0x3e9eaf76	0.3099324
206	0x3eb1faf9	0.3476179
207	0xbfa10706	-1.2580268
208	0xbd67df89	-0.056609664
209	0x3f504d77	0.813682
210	0x3f1821bd	0.5942648
211	0x3f278f3c	0.65452933
212	0x3fe8cb4d	1.8187042
213	0x3ecc7c82	0.39938742
214	0xc00f4b54	-2.2389727
215	0x3e649ca1	0.22325374
216	0xbd9e7eaf	-0.07739007
217	0x3ff2393a	1.8923714
218	0x3f282d57	0.65694183
219	0xbee63255	-0.44960275
220	0x3bfbd99e	0.007685854
221	0x3e708f1f	0.23492096
222	0x3fce5d37	1.6122197
223	0x3e7cc1a5	0.24683245
224	0x3f4e2587	0.8052601
225	0xbea3cfea	-0.31994563
226	0xbdd35d00	-0.10320473
227	0xbfeae2d0	-1.8350468
228	0xbf2634c0	-0.6492424
229	0x3e5d0639	0.21584405
230	0xbf326165	-0.6967986
231	0xbf14b7ab	-0.58092755
232	0x3f000247	0.50003475
233	0xc04d2262	-3.2052236
234	0x3e04ec0f	0.12980674
235	0xbfc193c0	-1.5123215
236	0xbffffe5b	-1.9999498
237	0x3dba9794	0.091109425
238	0x3f3a393e	0.72743595
239	0xbfc90827	-1.5705613
240	0x3fad8c88	1.3558512
241	0x3f2ddc1e	0.67914
242	0xbf4b2c5a	-0.7936455
243	0xbe128681	-0.14309122
244	0x3f154861	0.58313566
245	0x3f8576a4	1.0426831
246	0x3e19cb97	0.1501907
247	0x3f73825b	0.9512078
248	0x3f49ae77	0.7878184
249	0x3f96028f	1.1719531
250	0x3f21c923	0.63197535
251	0x3fd57b25	1.6678206
252	0x3e1de127	0.1541792
253	0xc03dce4f	-2.965717
254	0x3e39b0b7	0.18133818
255	0x3f6975f4	0.9119561

net.8.bias f4 [5]
0	0x4069a11a	3.6504579
1	0x40806ad9	4.013043
2	0x406a4589	3.660494
3	0x3fc688d9	1.5510513
4	0x40057a8e	2.0856051
